Model: "sequential"
+--------------------------------------------------------------------------------------+
| Layer (type)                         | Output Shape                |         Param # |
|--------------------------------------+-----------------------------+-----------------|
| conv2d (Conv2D)                      | (None, 28, 28, 60)          |           1,560 |
|--------------------------------------+-----------------------------+-----------------|
| conv2d_1 (Conv2D)                    | (None, 24, 24, 60)          |          90,060 |
|--------------------------------------+-----------------------------+-----------------|
| max_pooling2d (MaxPooling2D)         | (None, 12, 12, 60)          |               0 |
|--------------------------------------+-----------------------------+-----------------|
| conv2d_2 (Conv2D)                    | (None, 10, 10, 30)          |          16,230 |
|--------------------------------------+-----------------------------+-----------------|
| conv2d_3 (Conv2D)                    | (None, 8, 8, 30)            |           8,130 |
|--------------------------------------+-----------------------------+-----------------|
| max_pooling2d_1 (MaxPooling2D)       | (None, 4, 4, 30)            |               0 |
|--------------------------------------+-----------------------------+-----------------|
| dropout (Dropout)                    | (None, 4, 4, 30)            |               0 |
|--------------------------------------+-----------------------------+-----------------|
| flatten (Flatten)                    | (None, 480)                 |               0 |
|--------------------------------------+-----------------------------+-----------------|
| dense (Dense)                        | (None, 500)                 |         240,500 |
|--------------------------------------+-----------------------------+-----------------|
| dropout_1 (Dropout)                  | (None, 500)                 |               0 |
|--------------------------------------+-----------------------------+-----------------|
| dense_1 (Dense)                      | (None, 70)                  |          35,070 |
+--------------------------------------------------------------------------------------+
 Total params: 391,552 (1.49 MB)
 Trainable params: 391,550 (1.49 MB)
 Non-trainable params: 0 (0.00 B)
 Optimizer params: 2 (12.00 B)
